checkpoints/MTEED.pth (torch, 248298 bytes, 30 tensors)

block_1.conv1.weight f4 [16, 3, 3, 3]
000000 22 52 d2 bb 85 19 73 be f3 b0 71 bd f6 df 18 3e
       -0.0064184824 -0.23740204 -0.059006643 0.14929184
000010 f1 8b 19 3c dd 15 bf 3d d2 30 8c 3d 45 d3 14 bc
       0.009371744 0.09330342 0.06845249 -0.009083574
000020 34 8c 0c 3a de 1e e8 3b 3c b2 44 be b5 e2 f8 bd
       0.0005361468 0.007083758 -0.19208616 -0.12152616
000030 a3 64 3f bd 8d c1 2f 3d cd 3b 44 3c 6d d9 05 3c
       -0.046726834 0.042909194 0.011977148 0.008169514
000040 b6 15 a4 3d 70 8e 32 3e 08 97 51 3c 90 f9 0a be
       0.080119535 0.17437148 0.012792356 -0.13571763
000050 b9 25 ca 3d cb 92 1a 3e 3b 38 52 be 4d 66 fc 3d
       0.09870476 0.1509506 -0.20529263 0.123242
000060 c1 09 4e 3d 90 75 54 bd 06 4d 63 bc 09 d4 30 3e
       0.05030227 -0.05186993 -0.013873344 0.17268385
000070 10 16 39 3e ca cb 5f 3d d4 39 23 be 73 33 7d bc
       0.18074822 0.054637708 -0.15940028 -0.015454161
000080 70 53 ab bd 35 3f 25 bd 31 e6 81 bc bb 59 b5 bd
       -0.08365524 -0.040343482 -0.015856834 -0.08855005
000090 90 18 bb bd 68 7e 42 3e 50 ec f0 3b ad 60 ac 3b
       -0.09135544 0.18993533 0.0073523894 0.005260548
0000a0 cd 15 19 3e 17 72 ea bd 0a f0 b5 bd 21 9f c2 bd
       0.14949723 -0.11447542 -0.088836744 -0.09503008
0000b0 38 e9 ef 3c 37 0d 8d 3d f8 4f 4d 3d d7 5e bf 3d
       0.029286012 0.06887286 0.050125092 0.09344261
0000c0 6f c9 2e 3d 1c 0d 03 be 6c 82 89 3d 21 23 8f be
       0.04267257 -0.1279797 0.06714329 -0.2795649
0000d0 bb 54 44 3d 8d b7 33 3d d2 5a cc bd 55 e1 d2 bd
       0.047932368 0.04387622 -0.0997826 -0.10296885
0000e0 5f 2e 07 3d 7f c2 f5 3c 81 3e 82 3d 42 7f 9c bd
       0.033003207 0.02999997 0.06359578 -0.0764146
0000f0 58 6b 7d bd 89 2c d6 bd db 31 8b bd a3 97 fb 3d
       -0.06186995 -0.10457713 -0.067966186 0.12284782
000100 8f ea 89 3e c3 18 68 3d 47 2a 52 3c f0 94 05 3e
       0.26936767 0.05666424 0.0128274625 0.13045096
000110 4a 3d 4d 3e 7f bd a4 3c 3c 23 94 3d e5 ac d6 3d
       0.20042911 0.02010989 0.07233283 0.10482196
000120 91 0f 62 bc 3d 74 32 be 98 28 cb bd 84 c4 b9 bd
       -0.013797657 -0.17427154 -0.09919852 -0.090706855
000130 09 95 4b ba eb 9b 25 bd b1 65 0c bd 00 23 78 bd
       -0.00077660434 -0.040431898 -0.034276668 -0.060580254
000140 01 bf 15 be c9 5f 8d bd 31 d4 a2 ba 33 d1 c7 3b
       -0.14623643 -0.06903035 -0.0012422857 0.0060979365
000150 58 6d 0d be 35 79 17 3e a5 32 72 bd 23 6f 03 3e
       -0.13811243 0.1479233 -0.05913033 0.12835364
000160 e7 18 a9 3d 42 29 45 bc e9 44 19 bc a8 19 1e bb
       0.08256703 -0.012033762 -0.009354808 -0.002412418
000170 4a a2 bc bd 36 f8 1a 3e 5d a9 e8 3d a4 ce 80 bc
       -0.09210642 0.15133747 0.113604285 -0.015723534
000180 b5 80 d2 ba 7d 00 67 39 7d 6a a6 bd 1a ea 0e 3d
       -0.0016060086 0.00022030059 -0.0812578 0.034891225
000190 69 b8 73 bc a0 da 00 3c 86 96 84 bd a6 ca b5 3d
       -0.01487551 0.007864624 -0.064740226 0.08876543
0001a0 81 d7 3a 3d a0 67 00 3d 2e c1 42 bd 9e 15 46 3d
       0.045615677 0.031348825 -0.04754751 0.04836046
0001b0 fc 54 22 3d b8 ad 83 bd 92 a2 b7 bc 50 92 f9 3d
       0.03963183 -0.064296186 -0.022416387 0.1218611
0001c0 b8 3d 20 3e 1e 9c e1 3d 58 00 25 be 17 24 59 bd
       0.15648544 0.11016105 -0.16113412 -0.053012934
0001d0 ee 35 06 be 73 5a 3c 3d 9c d8 01 3e 93 24 cb bc
       -0.1310651 0.045984697 0.12680286 -0.024797713
0001e0 a9 3d b5 3d 9f af 2b 3e a3 7e e3 bc 0c dd 7b bd
       0.08849651 0.16766213 -0.027770346 -0.061490104
0001f0 fe 8a 87 bd 5e a2 74 be d4 10 18 bd 6b 67 56 3d
       -0.066183075 -0.23890063 -0.037125424 0.05234472
000200 7f 8e 7e bd 10 ac ec 3b d0 38 68 3e 3c 16 79 bd
       -0.062147614 0.00722266 0.22677922 -0.06081222
000210 f7 aa 21 3e 6a 8c 12 be 1b d9 14 be 52 86 28 bd
       0.15787874 -0.14311376 -0.14535944 -0.041143723
000220 70 03 1b bd d2 1d 92 3b 3c 75 d9 3c 1b b1 66 bc
       -0.037845075 0.0044591213 0.02654516 -0.014080311
000230 b1 1e d4 bd 8b 97 44 3d d9 dc 18 bb aa cf 3f bd
       -0.103574164 0.047996085 -0.0023324995 -0.046828903
000240 fa 5b 84 bb 6f d3 07 3d 20 b6 34 3d 3c 56 32 3d
       -0.004039285 0.033160623 0.044119 0.04353927
000250 5c 3b a3 bc b9 8e 42 bd e0 43 c5 bd 2f 79 84 3d
       -0.019925766 -0.047499392 -0.09632087 0.064684264
000260 cb ad b4 bd 59 2e dc 3d af b6 3f be 09 39 3e bd
       -0.08822211 0.107510276 -0.18722032 -0.04644111
000270 4f e7 66 bd 02 a8 b0 bc a1 a0 ff 3d 51 e1 ee bc
       -0.056372937 -0.021564487 0.124818094 -0.029160174
000280 76 3a 08 be a9 aa 9b 3d f8 66 c8 bc b4 51 eb bd
       -0.13303551 0.0760091 -0.024463162 -0.11490193
000290 5e 84 1f bd 2d 39 49 bc f6 8a 24 bd 63 1e c3 bd
       -0.038944595 -0.012281698 -0.040171586 -0.0952728
0002a0 35 50 81 be f3 91 03 bd ca d0 7e 3d 36 12 ca 3b
       -0.25256506 -0.03212161 0.062210836 0.0061667217
0002b0 da 61 09 bd af d3 4b 3d a6 9b dc bd 76 1c 8a bd
       -0.033540584 0.049762424 -0.10771875 -0.0674371
0002c0 99 c6 4e bd ee 5f 91 3d 0a 3f 53 bd fc b7 bc bd
       -0.050482366 0.07098375 -0.05157379 -0.0921478
0002d0 2c 2a e1 3d a5 40 a1 3d 09 07 28 3d 44 b5 5d bc
       0.10994372 0.07873658 0.041022334 -0.013531987
0002e0 08 6d 84 3d d5 54 67 3d 8a be 87 3e 17 5d fc 3c
       0.064661086 0.056477387 0.26512557 0.030806107
0002f0 15 a1 c2 3d c4 b5 42 bd ee d8 93 3d a6 b4 03 bd
       0.0950338 -0.047536626 0.072191104 -0.0321547
000300 39 27 f4 bd 97 d2 3f bd 21 ba 4f 3e dc 50 3d be
       -0.11921544 -0.046831694 0.20285846 -0.18487877
000310 b4 7d 11 3e 9e 80 b5 3c 86 58 00 3d 12 7b 16 3e
       0.14208108 0.022156056 0.031334423 0.14695385
000320 b4 1a 82 3c a2 df 61 be 56 3e 17 bd 14 89 f8 bb
       0.015881874 -0.22057965 -0.036924683 -0.0075847004
000330 7e 21 13 bd b6 fa 92 bd 75 b5 2c 3e 62 94 51 3d
       -0.035920613 -0.071767256 0.16866095 0.0511669
000340 e4 7d 45 bd 32 8f da 3d 03 af 17 be 31 2b de 3c
       -0.04821576 0.106718436 -0.14812855 0.027120205
000350 48 b7 2d 3e 4b b2 4e be af 73 b3 bd 7b 9c 03 3e
       0.16964447 -0.20185201 -0.08762299 0.12852661
000360 d0 51 8f 3d 85 8e 8f 3d 76 4d 46 bd 22 b3 5f 3d
       0.06998026 0.07009605 -0.048413716 0.054614194
000370 86 fc 1c 3e e0 f4 d0 3d 0c a2 3a bd bc 5e 67 3d
       0.15330705 0.10202956 -0.045564696 0.05648683
000380 63 cd 6d 3d ec 0a 5d be 41 3f 20 3d 5a 3b 18 3e
       0.0580572 -0.21586198 0.039122824 0.14866391
000390 a8 1c 53 3b 0d 63 be bd da 39 88 bd 57 48 dd bd
       0.0032213125 -0.09296236 -0.06651659 -0.10804813
0003a0 73 14 73 3d 5d 6b d6 bd f2 c0 03 3d 8a 09 f2 3c
       0.059345674 -0.10469697 0.03216643 0.029545564
0003b0 47 94 89 bd 7b 88 04 3d a1 ce 13 3e ff 7c f7 bc
       -0.06717735 0.03235672 0.14434291 -0.03021097
0003c0 31 0b 0e be f1 c1 bc 3c c5 95 c6 bd ee bf b2 3d
       -0.13871457 0.023041697 -0.09696535 0.08728014
0003d0 fc fe cf 3d e9 14 cd bc 97 60 28 bc 50 34 b0 3d
       0.10156056 -0.025034385 -0.010276935 0.08603728
0003e0 f6 3b 02 3e 85 bd 84 3e d4 4f f8 3d 42 f5 83 3d
       0.12718186 0.25925842 0.12124601 0.064432636
0003f0 55 5f 25 bd 2c 46 b0 bb 9a 96 1e bd 11 a1 1e bd
       -0.04037412 -0.005379459 -0.038717844 -0.038727824

block_1.conv1.bias f4 [16]
000000 5a f1 ea be dc de 0e be 5f 29 84 3d 4d 39 2d 3f
       -0.45887262 -0.13952202 0.064532034 0.6766556
000010 25 45 eb be 67 ba cc 3e d3 ec 56 3f de 04 d2 be
       -0.4595119 0.39985964 0.83955115 -0.41019338
000020 88 e0 84 3e 1f 0f 4c 3e 09 dc a5 be 61 b4 57 3f
       0.25952554 0.19927643 -0.32394436 0.8425961
000030 71 79 29 3e 90 05 94 be 57 ff 00 bf 73 69 8f be
       0.16550232 -0.28910494 -0.5038962 -0.2801014

block_1.conv2.weight f4 [16, 16, 3, 3]
000000 7c 77 a5 bc a5 13 7c 3d e7 d2 49 bc c6 c2 8b bc
       -0.020198576 0.061542172 -0.012318349 -0.017060649
000010 d3 5e c8 3d 4c 4d 89 bc e4 93 40 bd 98 16 ed 3d
       0.09783711 -0.01676049 -0.04701604 0.11576575
000020 e4 46 35 be 5b ae 54 bd eb ab ac 3c cc f1 bc bd
       -0.17702824 -0.05192409 0.02107807 -0.092258066
000030 ec 35 ee bc 97 90 33 bd 46 97 04 be 9b e0 4b 3d
       -0.029078446 -0.043839063 -0.12948331 0.049774747
000040 34 f0 2e be 6a a1 7b 3d 5f c2 8f 3d f0 6e 33 bd
       -0.17083818 0.061433233 0.07019495 -0.04380697
000050 7e 8c 7e bc 3f 4f d2 3d 2c e4 a1 bd 33 5e bc bd
       -0.015536426 0.10269021 -0.079048485 -0.091976546
000060 ef e8 2d be 15 95 3b bc 10 42 f8 3d 42 48 80 3d
       -0.16983388 -0.011449118 0.121219754 0.06263782
000070 f7 fe df bc 44 f3 86 bd 5d 9d 2a 3e c5 b7 0a be
       -0.027343256 -0.06589368 0.16661592 -0.13546665
000080 75 dd 5a 3d d7 69 58 3d 75 2c c8 bd a9 cf 95 3c
       0.053433854 0.05283531 -0.097741045 0.018287497
000090 34 ef 2f bd 95 f3 04 3e 1b 26 d5 3d ef 07 ed 3d
       -0.04295273 0.12983544 0.10407659 0.11573779
0000a0 bc de f5 3d 7d 52 56 bd 89 ba 92 3d a9 e2 24 bd
       0.12005374 -0.05232476 0.07164485 -0.040255222
0000b0 f0 fa 90 3c 78 27 c6 3d 01 cb 8d 3d 56 aa 9c bc
       0.017697781 0.09675497 0.069234855 -0.019124191
0000c0 af 63 81 be fe d8 e2 3c 35 dd 8e bd d6 9e 5d bd
       -0.25271365 0.02769136 -0.06975786 -0.054106556
0000d0 7c 39 38 3e af 89 a1 bd 90 f7 90 bd 19 a3 56 3d
       0.17990679 -0.07887589 -0.07078469 0.052401636
0000e0 e0 4f f8 bc 00 01 0f 3d 70 35 26 be 74 be 5f bd
       -0.030311525 0.034913063 -0.16231322 -0.05462499
0000f0 9b 9e 2e 3c 05 88 f5 3d 63 f3 8f 3d a1 6a bd 3c
       0.010657932 0.11988834 0.07028844 0.023122134
000100 3b 67 36 3c 75 30 2d 3d f6 69 80 3d 92 25 84 3e
       0.0111330105 0.04228254 0.062702104 0.25809914
000110 30 60 a8 bd f4 1a 1f bd e5 83 47 3e 44 09 5f bd
       -0.08221471 -0.038844064 0.19483908 -0.054452196
000120 5c 88 ae 3d 0d d7 02 bc 6b 0b c0 3c e2 ca 93 3c
       0.08522102 -0.007985842 0.023442945 0.018041078
000130 d5 11 29 be 5d 2f ca 3d e6 49 67 3d 68 b9 ed bd
       -0.16510709 0.09872315 0.05646696 -0.11607629
000140 65 e1 d3 bb f5 d2 5d 3e 83 cd ba bd 84 7f 32 bd
       -0.006466078 0.21662505 -0.091212295 -0.04357864
000150 2c 83 18 3d 42 94 09 be 24 07 80 bc c0 57 c9 3d
       0.03723447 -0.13435462 -0.015628405 0.0983119
000160 94 28 4e bc 27 81 92 bd cf 16 95 3c e1 58 08 3e
       -0.012582917 -0.0715354 0.018199353 0.13315155
000170 95 4d 42 bd 3b b5 d5 3d f6 15 59 3d dc f6 bd 3c
       -0.04743727 0.104349576 0.05299946 0.023189
000180 01 bb b1 3d c6 af 21 3c c2 5c ba bd 2c 9e 98 bc
       0.08678246 0.009868568 -0.090997234 -0.01863011
000190 c7 9d 87 bb a0 f7 1b 3d c8 20 db 3d ef 4f 02 be
       -0.0041386816 0.03807795 0.10699612 -0.12725805
0001a0 cd 25 c0 3d 97 89 a9 bd 7a 00 57 bd b0 86 4f 3c
       0.0938221 -0.08278196 -0.05249069 0.012666389
0001b0 4f 09 78 ba 33 4f 47 3e 28 d7 04 3e 7c 22 e2 bd
       -0.00094618363 0.19463806 0.129727 -0.110417336
0001c0 59 1a 22 3e 67 ca 1a be c5 9e c2 3d 51 35 87 bd
       0.15830363 -0.15116273 0.09502939 -0.06601966
0001d0 8a 9e a8 bc 99 18 62 bd e9 36 e8 bc 24 21 62 bc
       -0.02058341 -0.05519924 -0.028346496 -0.013801847
0001e0 26 fb 29 bd 55 24 d1 bc f6 5b e7 3d 24 d5 45 3b
       -0.04149928 -0.02553002 0.11296837 0.0030186856
0001f0 94 5c d0 3d cc 93 a0 bd c7 da 8e bd af 64 bf bc
       0.10173908 -0.0784069 -0.06975322 -0.02336344
000200 3c 5a 2d 3c 76 2a 7c bd db 46 1e bd be 00 db 3b
       0.010580596 -0.06156393 -0.03864179 0.006683438
000210 54 25 cc 3b a5 3b 52 bd 95 66 0a be 6b f7 8b 3c
       0.006230036 -0.051326413 -0.13515694 0.017085752
000220 21 6d 6c bd 81 fd 2b bc c1 19 cf 3c b8 46 9b 3e
       -0.05772126 -0.010497452 0.025280835 0.30327392
000230 36 f7 ca 3c 32 bd 8b ba 86 2d 1a 3e 0c bc dd bd
       0.024776082 -0.0010661243 0.15056428 -0.10826883
000240 41 9c a4 3d 40 16 93 bc 80 04 bc 3d a4 ae a5 bd
       0.080376156 -0.017954946 0.09180546 -0.08089951
000250 1b aa 15 be 44 0a 13 3e 54 95 5f bd fa 66 42 be
       -0.14615671 0.14359385 -0.05458577 -0.18984595
000260 47 a1 fb 3d 9f 22 cf 3d df 32 61 3d 77 49 69 3c
       0.122866206 0.10114025 0.054980155 0.014238707
000270 08 60 0f 3c 81 54 f5 bd df 30 9a bd 1c 31 8f 3d
       0.008750923 -0.119790085 -0.07528853 0.06991789
000280 99 d3 4e bd 15 36 ed bc 20 03 9b 3c 5f 39 7e 3d
       -0.050494764 -0.028956452 0.018922389 0.062066432
000290 9e 3b a7 bc 66 00 c0 3d 3f 11 8c 3d 52 62 17 3d
       -0.02041417 0.09375076 0.06839227 0.036959
0002a0 7c 0c e0 3d 1e 06 67 bd a4 6f 03 be 8c 60 e3 3d
       0.10939881 -0.05640232 -0.12835556 0.11102399
0002b0 65 38 d4 3d ea 6d 98 bc 7a f8 82 3d d4 25 e5 3d
       0.10362319 -0.018607099 0.063950494 0.11188856
0002c0 e8 92 20 3d e4 61 97 3a ad 98 17 bd dd 8d 2e bd
       0.0392026 0.001154956 -0.037010837 -0.04261576
0002d0 06 9d cb 3c 38 f4 47 bc ba d8 01 3e 36 1e 18 3d
       0.024855148 -0.012204222 0.12680331 0.037138186
0002e0 28 79 48 be 80 f9 27 bd 0f cf e2 bc 26 f3 52 3d
       -0.19577467 -0.041009426 -0.027686624 0.051501416
0002f0 1c 3d ef 3d f7 52 fa 3c 84 ff 2c 3c c9 60 ed bc
       0.116815776 0.030557139 0.010558967 -0.028976815
000300 61 88 8b 3d fb f1 0b bd 4e b6 bf 3d a8 4d 82 bc
       0.068131216 -0.034166317 0.09360944 -0.01590617
000310 a0 61 f7 bc 6c 10 1a 3e 69 29 5a 3d c9 8a eb 3d
       -0.030197918 0.15045327 0.053262148 0.115010805
000320 e1 14 0c be 17 89 02 3e dc ad 1d 3e 4d 7e 99 bd
       -0.1367984 0.12747608 0.15398353 -0.07494793
000330 63 50 d7 bd 36 69 8d 3d 7e 20 b2 bc b0 43 e9 bb
       -0.105133794 0.06904833 -0.02174401 -0.0071186647
000340 1b bc 56 bc 3a 90 a2 3d 6f 05 98 bd df 00 0a be
       -0.013106371 0.07937665 -0.074229114 -0.13476895
000350 39 ef e9 bc 30 44 b0 bc 9d 3c b4 bd 2d 09 ba 3d
       -0.028556453 -0.02151689 -0.088006236 0.090837814
000360 9a b0 8d 3d 43 99 85 bd b8 ec 26 3c 59 f7 bd 3d
       0.0691845 -0.06523373 0.010188274 0.092756934
000370 32 fe 43 bc 9a 09 16 3d 5c 34 20 3e 5c fe 96 bb
       -0.01196246 0.03663025 0.15644974 -0.0046079587
000380 65 af af 3c 34 90 ce bc a4 f1 ad bc 1c 36 55 3d
       0.02144594 -0.025215246 -0.021233387 0.052053556
000390 cc e1 06 3e 84 1c df 3d 0c 32 fa bd f3 e3 8c 3d
       0.13172072 0.10894111 -0.12216577 0.06879415
0003a0 c6 50 c7 3d 37 92 d6 bd ef 3d 3e bc c8 64 5a 3d
       0.09732203 -0.10477107 -0.011611446 0.05331877
0003b0 c4 52 97 3c 17 4e 86 bd 77 fa 05 bd e0 18 b8 3d
       0.018472083 -0.06557863 -0.032709565 0.089891195
0003c0 97 55 04 3d 1e 94 9a bb 6c 31 57 3d ca 25 5e 3c
       0.032308187 -0.004717364 0.052537367 0.013558814
0003d0 99 5f 05 3b 3a 82 95 bd bb 53 30 3e 8d 2b bd 3d
       0.002035117 -0.07300229 0.1721944 0.09236822
0003e0 28 5a a3 3d 26 50 d6 3d 78 f4 53 bd 78 95 06 be
       0.0797618 0.10464506 -0.051746815 -0.13142955
0003f0 9a dc f9 bb 33 aa 86 bb 7b 2f ae 3c fc ab 0a bd
       -0.0076251747 -0.004109645 0.021262875 -0.033855423

block_1.conv2.bias f4 [16]
000000 87 aa d5 be 39 cf 2c 3f b4 9f 34 3e 79 98 ae be
       -0.41731665 0.67503697 0.17639047 -0.34100702
000010 59 15 ce be dd f9 d8 3e be 6e 4c 3f ce e1 c0 3e
       -0.40250662 0.4237813 0.7985648 0.37672275
000020 a8 f9 f5 bc ed 58 58 be 4e 9e 02 3e 1a 7e cc bc
       -0.030026272 -0.21127672 0.12755701 -0.024962474
000030 09 ac 1d bf 51 b5 9d 3e 9c b1 e6 be 66 d8 59 bf
       -0.6159063 0.30802396 -0.4505738 -0.8509582

block_2.conv1.weight f4 [32, 16, 3, 3]
000000 b5 52 a6 3a ca a0 d6 3c 5c 70 8e 3a 74 42 27 3d
       0.0012689444 0.026199717 0.0010867226 0.04083486
000010 23 63 22 3c 6b 1d 5c bd fd b5 33 bd 01 70 0a 3e
       0.009911331 -0.053738993 -0.04387473 0.13519289
000020 a8 d0 7d bc 30 7b aa 3d 39 40 1e 3d 36 e3 94 bb
       -0.015491642 0.083242774 0.038635466 -0.004543687
000030 6d f0 32 bb 4d 39 3e bb 29 2d 88 3d 1e d3 15 bd
       -0.002730395 -0.0029025853 0.066492386 -0.03657829
000040 fa 86 b6 3b b7 b4 b8 3d 01 fe ca bd 48 21 05 bd
       0.0055702897 0.090188436 -0.09911729 -0.032502443
000050 0e b6 04 bd 1e c5 50 3d 88 d1 06 be 5a d7 62 3d
       -0.032400183 0.050969236 -0.13165867 0.055381157
000060 e9 80 bd bc 0b 69 b2 bd bf 35 ad 3c 73 03 6b 3c
       -0.023132758 -0.087114416 0.021143792 0.014344084
000070 3d a2 8e bc 57 e2 9e bd 5f ce 0d bd 03 29 48 bc
       -0.017411346 -0.07758015 -0.03462064 -0.012216809
000080 8c 2e f5 3c ef 27 1d bd 0a 07 1f 3c 9a 54 97 bb
       0.029929422 -0.03836816 0.009706268 -0.0046182396
000090 95 6e 1d 3d ba bb 9c bc de 3f 99 3d a3 b0 da bd
       0.038435537 -0.019132484 0.07482885 -0.10678222
0000a0 79 bf 04 bc 1f a1 ce 3c 10 4f 92 bd 85 54 f6 3b
       -0.008102291 0.025223313 -0.07143986 0.0075173997
0000b0 d6 40 70 3d cd 4e 0e 3d ce 30 e4 bb 99 fa 9a 3d
       0.058655582 0.03474312 -0.006963826 0.07567329
0000c0 93 5a 98 3d 4c fd a9 3d e9 ea a1 3d 49 d0 7f 3c
       0.07439151 0.08300266 0.07906134 0.015613624
0000d0 a2 29 b1 3c eb 73 67 3c b2 ff b4 3b 58 4c 93 bb
       0.021626297 0.014126758 0.0055236453 -0.004495185
0000e0 9e 01 0a 3d a3 7c ef 3c d3 e1 15 bc a3 2e 13 bd
       0.03369295 0.029234236 -0.009148079 -0.035933148
0000f0 38 3f e9 3d dc e3 b4 bd 4c 8d 11 3c ee 27 49 3d
       0.11389011 -0.08832523 0.008883785 0.049110346
000100 b7 75 8b bd e5 1e a7 bc 1a 01 18 3e 46 b0 85 3a
       -0.06809562 -0.020400474 0.1484417 0.0010199628
000110 41 d1 31 bd c0 c8 24 3e af 12 d9 bd fd d2 6b bd
       -0.04341245 0.16092205 -0.10599267 -0.05757426
000120 fd 01 95 bd d8 1f c2 bd d2 d6 86 bd 7e 92 f7 3c
       -0.0727577 -0.0947873 -0.065839425 0.03022122
000130 d1 f7 46 bd 9b 9a 2c be 74 2a b3 bd 78 5e 67 bd
       -0.04857618 -0.16855852 -0.08748332 -0.056486577
000140 03 0f a3 bd 8d 96 a1 3d 5d 6d a4 3d 13 75 b3 3c
       -0.07961848 0.078900434 0.08028672 0.021906411
000150 0a 93 56 3d 57 b0 f9 bc ec 8e 41 3d a9 d7 d4 3d
       0.05238632 -0.030479593 0.04725544 0.103926964
000160 ff 41 87 3d 54 11 85 3b 71 2f a7 bd ca 4f 04 bd
       0.06604385 0.0040609036 -0.081633456 -0.032302655
000170 af aa cb 3d 6c b0 a9 bd 4a da 62 3c 47 11 91 bd
       0.09944665 -0.08285603 0.0138459895 -0.070833735
000180 eb b4 14 be 4c ea 60 bd f6 80 2f bd d9 5a 00 be
       -0.1452214 -0.054910943 -0.042847596 -0.12534656
000190 4e 0e 38 3d 68 0c 51 bd 91 57 ff bd ab b5 0a 3d
       0.044935517 -0.051037222 -0.12467874 0.03386466
0001a0 1c 2a de bc cb 57 73 bd 09 f4 a5 3d fe 51 65 3d
       -0.027119689 -0.059409898 0.08103187 0.055986397
0001b0 26 e3 88 bd bb 8b 76 bd 14 c9 92 bd d9 09 74 bd
       -0.0668395 -0.06019185 -0.07167259 -0.059579704
0001c0 64 d3 83 bd 28 ca 2e bd c5 11 c0 3c 43 28 82 3b
       -0.06436804 -0.04267326 0.023445973 0.0039720847
0001d0 71 b5 18 bd 6f e4 7a bd 4e 3e fb 3b bd bb 9c 3d
       -0.03728241 -0.061253008 0.0076673394 0.07652996
0001e0 7a 76 2f be 97 c5 dc 3d bc 70 d2 bd 1a 0d cd 3c
       -0.17135039 0.10779875 -0.102754086 0.025030661
0001f0 49 46 e8 3b cf 27 e9 3c dd 69 90 bd 9f 4d 1d be
       0.007088457 0.028461365 -0.07051442 -0.15361641
000200 56 3a 9e bd ee a4 6f bd 2a 49 d6 bd 75 34 96 bd
       -0.077259704 -0.0585069 -0.10463174 -0.07334224
000210 14 9d c5 bd aa 22 bb bd d3 1c b0 bd 54 81 a0 3c
       -0.09649101 -0.09137471 -0.08599248 0.019592918
000220 7e 64 ad 38 7c 93 94 bd 28 20 ae 3d f9 15 9e 3b
       8.268001e-05 -0.07254693 0.08502227 0.0048243967
000230 d5 c1 02 bd 8c 9e 77 bb 12 e8 04 bd bd 64 32 3c
       -0.031923134 -0.003778371 -0.032447882 0.010888276
000240 ac 7c 10 bb ba 8b 42 3d fc ee 3b bd f3 60 9a 39
       -0.0022046966 0.047496535 -0.04588221 0.00029445402
000250 8e 93 e9 ba b0 66 ff bc 6b de 84 bc 78 97 98 bc
       -0.0017820464 -0.031176895 -0.016219338 -0.018626913
000260 77 23 20 bd 9c 3e 73 bd d8 82 74 3c e7 0b be 3c
       -0.039096322 -0.05938588 0.014923774 0.023199035
000270 58 8f da bc fa 5a b0 bc 50 da 59 bb 4e b0 64 bd
       -0.02667968 -0.021527756 -0.0033241697 -0.0558322
000280 25 20 a0 bc d1 3e 8f 3d 6b 02 92 3d 6f 24 9b bd
       -0.019546578 0.06994403 0.071293674 -0.075753085
000290 b8 44 83 bc 8c 41 b6 bd f0 2c f6 ba f1 09 21 bd
       -0.016023979 -0.08899221 -0.0018781703 -0.03931612
0002a0 29 db 57 3d 5c 3c 03 bb 05 c4 0c 3b 9d 77 16 bd
       0.05269924 -0.002002499 0.0021479141 -0.036735166
0002b0 19 26 7f bc 15 89 69 3c 51 2f 8e bb 48 44 e9 bc
       -0.015573048 0.014253874 -0.0043391366 -0.028474942
0002c0 e3 6f ca 3c 3d 4d f8 3a 7b f3 af bd bd 2f ff 3c
       0.024711555 0.0018943917 -0.08591362 0.031150693
0002d0 2c 0b e0 3b de f6 34 3c 89 8a cb 3c 62 c2 21 3c
       0.0068372693 0.011045186 0.024846332 0.009873005
0002e0 bf 3c 9a bc 7d 99 f2 3c cb 95 06 3c b4 91 34 bc
       -0.018827794 0.029614205 0.008214424 -0.011021066
0002f0 64 a0 17 bd d8 7d 78 bb b5 be 48 bd 60 a3 c9 bd
       -0.037018195 -0.0037916806 -0.049009997 -0.098456144
000300 a6 1a 11 bd 99 19 2a bd 05 1c c3 bb d1 4d 93 3b
       -0.035425805 -0.041528318 -0.005954268 0.0044953604
000310 92 a0 61 bc a5 f9 a4 39 2e 87 e4 bc 1d 62 96 bc
       -0.013771193 0.00031466517 -0.02789649 -0.018357331
000320 be 2a 00 3d 56 b3 23 3c c9 5b 4c 3c aa 71 e8 bd
       0.031290762 0.0099914875 0.012473055 -0.11349805
000330 6d 70 c7 bc 91 94 74 bd 76 e1 2f 3d 46 7d 32 bc
       -0.024345601 -0.059711996 0.042939626 -0.010894125
000340 ba 64 5a bb 4d ef 26 bc e8 17 9c 3c 09 a4 23 3c
       -0.0033324198 -0.01018889 0.019054368 0.0099878395
000350 b1 8f 1b 3d 27 5b b6 3c aa 92 59 3b 10 2b 53 bd
       0.03797883 0.022260262 0.003319899 -0.05155474
000360 08 f7 88 3c 11 84 09 bc d2 3e 2d 3d ce 95 1e 3c
       0.016719356 -0.0083933035 0.04229624 0.009679271
000370 b3 3a 81 bc 14 ba 92 bc f7 a2 90 3c 75 80 85 bd
       -0.01577506 -0.017910995 0.017655833 -0.06518642
000380 15 5e 27 3d 84 fc 26 bb 29 8a 21 3d b9 20 1d 3c
       0.040861208 -0.00254801 0.0394384 0.009590321
000390 49 9b 71 bd 71 30 54 bc 8a e7 27 3c 71 88 a3 3c
       -0.058985982 -0.012951002 0.010248074 0.019962521
0003a0 47 3c a0 3b e2 ba 35 3c c4 e1 82 3c 61 a8 df bc
       0.004889998 0.01109192 0.015976794 -0.027301969
0003b0 3f 50 37 3c 4f fb 87 bc 3e a7 7d bc e7 54 7b 3c
       0.011188566 -0.016599325 -0.015481768 0.0153400665
0003c0 a0 41 f2 bb 53 2d c5 3c 26 91 33 ba 70 16 79 3b
       -0.007393077 0.024069464 -0.0006849937 0.0038007759
0003d0 5a c5 5c 3d 75 48 10 bd a2 41 94 bb 0a 39 38 bc
       0.053899147 -0.03522535 -0.0045244256 -0.011244068
0003e0 50 eb a9 bd 3e 5d 8e 3c f7 18 ab 3c 49 e9 9f 3b
       -0.082968354 0.017378446 0.020885928 0.0048801047
0003f0 90 39 ec 3c 06 fe e6 bc f8 da 31 3d 2c 61 8e 3a
       0.028836042 -0.0281973 0.043421715 0.00108627

block_2.conv1.bias f4 [32]
000000 d5 8e 2e 3d bd 7a 86 be bb 29 2b bd cb ad 1e be
       0.042616684 -0.26265517 -0.041787844 -0.15495984
000010 ca f4 49 be b5 7a 14 be 23 c5 45 be d5 07 e5 3e
       -0.19722286 -0.14499934 -0.19313483 0.44732538
000020 a0 f7 c1 3d b2 cc 78 3e 19 f4 a1 3c 03 cc 80 3d
       0.09471059 0.24296835 0.019769715 0.06288912
000030 6c d0 4d 3e 9a 83 af be 78 50 8d be 03 37 c9 bd
       0.20099038 -0.34280092 -0.27600455 -0.09824946
000040 f7 9c 8f bd ae f9 61 3e 01 e0 86 3e 7c c1 87 3d
       -0.070123605 0.22067901 0.26342776 0.06628701
000050 3d 31 bd 3e ad 47 c4 bc aa d0 93 3e 1a 3c e6 3c
       0.36951628 -0.023959959 0.28870136 0.02810483
000060 b8 06 68 3e 34 c5 b4 bc 26 df 1c 3e 48 ca 1c 3f
       0.22658813 -0.02206669 0.153195 0.61246157
000070 26 42 c1 3d 46 13 21 3e b1 61 a5 bc 1b 43 30 3e
       0.09436445 0.15730008 -0.020188184 0.17213099

block_2.conv2.weight f4 [32, 32, 3, 3]
000000 f1 b9 6a 3d 04 6d 2b bd cf a9 ad bc ac 95 d7 bb
       0.057306234 -0.041852012 -0.021199135 -0.0065791216
000010 9a 63 db bc 1b 32 78 3c 5e 15 1b bd a1 8f 9c bc
       -0.026780892 0.015148665 -0.037862174 -0.019111456
000020 39 cf 04 3d 16 0c 58 3c 5a 45 b9 bc 06 33 33 3c
       0.032424185 0.013186475 -0.022616077 0.010937458
000030 76 c6 ff 3c 70 50 d1 3c 5c 56 39 3d fd b3 0e 3c
       0.031222563 0.02555105 0.045248374 0.008709905
000040 ba 1e 1d 3d 69 48 3e 3d 4d 37 b4 3c c0 e5 88 bd
       0.03835938 0.046455774 0.021999026 -0.06684446
000050 f6 56 3c bc eb 57 01 3e 99 68 c0 3c f1 89 a5 3d
       -0.0114953425 0.12631194 0.023487376 0.08082951
000060 f0 7d ae 3a fe a0 ae bd 1c 4c 53 3d 7b 02 0b 3d
       0.0013312679 -0.085268006 0.051586255 0.033937912
000070 16 73 23 3d 4a 16 a5 3c c9 d1 d6 bc ce be fb 3c
       0.039904676 0.02015223 -0.02622308 0.030730631
000080 dc 9a 3e 3c 81 98 31 3d 9e 6e 56 3d 48 39 0a 3d
       0.011633601 0.04335833 0.052351587 0.033746034
000090 59 9e 5d 3d e8 eb 6d 3b 9e 4b cd 3c 40 e2 1d 3d
       0.05410609 0.003630394 0.025060471 0.038545847
0000a0 76 08 79 bc 94 f7 71 bc 66 f4 e9 3c d1 03 67 bc
       -0.015199771 -0.0147685 0.028558921 -0.014100031
0000b0 c6 97 40 bc 25 14 09 bc db 2b 69 bd aa 78 0d 3d
       -0.011754936 -0.008366619 -0.05692659 0.034538902
0000c0 bb a2 d1 3c 3a 9c 10 3e 7f 93 01 3d 0e 67 d6 bb
       0.025590291 0.14122096 0.031634804 -0.006543047
0000d0 5e 28 54 bc 8e 82 cc bc c2 19 9f 3a 33 3e 76 bb
       -0.012949077 -0.024964597 0.0012138414 -0.0037573695
0000e0 fd 77 94 3c 45 cc 54 3d d3 09 2e 3d fc c9 28 3d
       0.018123621 0.05195262 0.042489838 0.041208252
0000f0 ff bf 8a 3b 59 f3 37 3d 75 1f 6a 3c 78 8c 3b bb
       0.0042343135 0.04490981 0.0142897265 -0.0028617661
000100 59 f0 5c bd 5b 96 4a 3d 28 b9 05 bc 89 9f cb 3c
       -0.05394015 0.049459796 -0.0081618205 0.024856346
000110 a8 11 b9 bd 65 6d 78 3d 06 74 dc 3c 2b 32 1a 3d
       -0.09036571 0.0606512 0.026910793 0.0376455
000120 3f b2 d3 bd 15 37 27 bd 5d f6 32 bd 3a dc 0c be
       -0.10336732 -0.040824015 -0.04369198 -0.13755885
000130 18 42 93 bd d1 04 80 bd 0d 8a c7 bc 52 b8 ce 3c
       -0.07190341 -0.06250919 -0.02435782 0.025234375
000140 92 c6 9e bd 2a b3 81 3d 3f a3 50 3c 10 ee e7 bc
       -0.07752718 0.06333001 0.012734233 -0.02831176
000150 27 30 8c bd 20 e0 16 bd cf 2b 76 bd 56 55 53 bc
       -0.06845122 -0.036834836 -0.060100373 -0.012898764
000160 6a 3b 23 bd 28 cf c2 3b 16 d0 88 bd f1 17 13 3d
       -0.039851584 0.005945105 -0.06680314 0.035911504
000170 30 1f 8f bd 19 ae 87 bc 03 96 03 bd a5 47 8d bc
       -0.069883704 -0.016562508 -0.032125484 -0.017246077
000180 6b 77 d2 bc 7f e8 93 3d 62 7a a7 bd 25 80 99 3c
       -0.025691709 0.072220795 -0.081776395 0.018737862
000190 20 32 c7 bd 52 cf 09 3e 37 14 b5 3a a8 e3 ef 3c
       -0.097263575 0.13457993 0.0013815229 0.02928336
0001a0 b3 58 10 3d 40 3d e9 3c d8 3d 2f bd 16 4d ca bc
       0.03524084 0.02847159 -0.04278359 -0.02469496
0001b0 ac bd 2c 3d bf c6 87 3d 94 29 4c 3a 84 89 43 3d
       0.042173073 0.06629705 0.0007788178 0.047738567
0001c0 c1 17 e4 bc e8 3f a8 bd 89 35 8b bc 47 26 7f bd
       -0.027843358 -0.08215314 -0.016993301 -0.062292363
0001d0 39 aa e8 bd 8a 51 37 bd 1f 0d ab 3c 52 6b 49 bd
       -0.113605924 -0.044755496 0.02088028 -0.049174614
0001e0 d8 0d ba 3c 38 41 95 bd 4d 14 5c 3d 89 97 b5 3c
       0.02271168 -0.0728783 0.053730298 0.022166984
0001f0 60 c2 2f 3d 59 64 dd bc f5 a2 d6 b9 af b8 a7 bc
       0.04290998 -0.027025389 -0.00040938673 -0.020473806
000200 87 79 9d bc d5 1f 06 bc d9 0d 1c bd dd 0e 14 bd
       -0.019222988 -0.0081863 -0.038099144 -0.036146987
000210 8b 5a 05 bc db 3e c6 bc 8e 4d 95 bc 1c 70 a6 3c
       -0.008139263 -0.024199894 -0.018225458 0.02031713
000220 f6 9a a0 3d 91 a5 a0 3d e0 7a 57 3d 40 a7 00 3d
       0.078420565 0.07844079 0.052607417 0.031409502
000230 12 fc 9c 3d da 0e 0b 3c 3d 83 20 3c 6c 80 f5 3d
       0.07665266 0.008487428 0.009796915 0.11987385
000240 14 42 38 bd 74 54 03 bc 67 6f ef 3c 48 fd 69 3d
       -0.044984892 -0.008015741 0.029227925 0.057126313
000250 6b e8 0b bd 98 86 26 3d d7 b6 85 3c 50 b2 2a 3b
       -0.034157198 0.040655702 0.016322536 0.0026046224
000260 ab 65 a9 3d 5b 68 88 bd c6 ca 22 3d be 6e 75 3c
       0.08271345 -0.06660529 0.03974416 0.014980016
000270 b3 f4 24 3b 26 ad ad bc 7b 51 b0 3b 00 9a ab bc
       0.0025170266 -0.021200728 0.005380807 -0.020947456
000280 06 de 05 be 66 6c d8 3c 2f 58 b2 bc f4 36 63 bc
       -0.13072976 0.026418876 -0.021770565 -0.013868082
000290 a5 4f 52 bd 82 ab ad 3c f2 04 8f 3d 62 ba e1 bd
       -0.051345486 0.021199945 0.06983365 -0.11021878
0002a0 cb d6 6b bd 15 01 8e bd 35 7f 23 3d 89 d8 ed 3c
       -0.05757789 -0.069338 0.039916236 0.029033916
0002b0 2e c4 1c 3d dc 94 0b bd 35 05 13 bd 34 40 14 3d
       0.03827303 -0.03407751 -0.035893638 0.03619404
0002c0 5b 27 dd bc 01 c0 5d bd 06 86 d0 bc fa 05 85 bc
       -0.026996305 -0.054138187 -0.025454532 -0.016238201
0002d0 f5 ce fb bd c8 10 64 bd 0e e5 48 bd 03 dc 27 3d
       -0.12295333 -0.055680066 -0.04904657 0.040981304
0002e0 03 36 6d bd 46 80 fc bd f6 a6 2c bd 9c 6d 65 bd
       -0.057912838 -0.12329154 -0.042151414 -0.056012735
0002f0 39 31 16 3c e4 7b 07 3b 86 14 28 3d 23 df c2 3b
       0.009167009 0.002067321 0.041035198 0.00594701
000300 a0 f8 e3 3d 64 54 45 bd 15 98 78 3d 5f 7c 29 bd
       0.11131406 -0.048176184 0.06069191 -0.041378375
000310 90 58 f7 3c 1a a2 da bc 81 36 df 3a 3d 7e 18 bd
       0.030193597 -0.026688624 0.0017029793 -0.037229765
000320 e9 b3 0e bb c1 83 c6 39 aa d0 41 3d 97 56 e3 bb
       -0.0021774715 0.00037863667 0.04731814 -0.0069378125
000330 73 c8 86 bb f5 1b 40 bb 2f 8a cd bc d0 03 94 bd
       -0.004113251 -0.0029313539 -0.025090305 -0.0722729
000340 05 92 a0 bc 77 ad bc 3c 70 fb 2c bd ab 89 6c 3d
       -0.019600878 0.023031933 -0.042231977 0.057748478
000350 01 18 0a 3b 82 19 0f 3d 29 ea 45 3b 73 bf 8c 3d
       0.0021071436 0.034936436 0.0030199385 0.068724535
000360 75 8b 87 3c cb 70 e2 3c 40 fa 27 3d 85 54 1d 3c
       0.01654599 0.027641675 0.04101014 0.009602671
000370 74 d4 9a 3d 95 c9 19 bd e1 7e c4 3c e0 45 e8 3d
       0.075600535 -0.03754576 0.023986282 0.113414526
000380 f8 51 e0 bb 0a 56 d5 bc ad 22 cb 3c c9 d3 d0 3c
       -0.006845709 -0.026042003 0.024796808 0.025491612
000390 12 e9 cb bd 59 fd 6b bd 6e 5e 8f 3c fe cf 97 3d
       -0.09956564 -0.057614658 0.017501082 0.07412718
0003a0 a4 5e ba 3c e3 b9 6d 3d 30 50 c8 bc e3 09 9b bc
       0.022750206 0.058038604 -0.024452299 -0.018925613
0003b0 ef 8a 8c bd 1c bc 32 3d 44 a0 fa 3c 2c 79 ca bd
       -0.06862437 0.043636426 0.030593999 -0.09886393
0003c0 fa eb 90 3b 77 7e 7a 3c 27 df cf bd 41 5a 6d bc
       0.004422662 0.015288941 -0.10149985 -0.01448685
0003d0 3c 80 28 bd 3e fe b0 bc 30 27 91 bd b5 60 7b bc
       -0.04113792 -0.021605607 -0.070875525 -0.015342881
0003e0 37 0b 86 bc 7d ca e4 3c 15 4a 32 3d 0c 77 cc bd
       -0.01636277 0.027928585 0.04352768 -0.09983644
0003f0 79 45 c5 3d 63 c0 eb bb 80 f6 b0 3d 38 3d 8d 3b
       0.096323915 -0.007194565 0.08640766 0.0043102764

block_2.conv2.bias f4 [32]
000000 d9 73 bd bc 22 ac eb bd d2 ea 9a 3c cc 6c 4a 3e
       -0.02312653 -0.11507441 0.0189108 0.19768065
000010 ee 9a a5 3d 95 84 45 be 4e e4 33 3c 4c 1b b4 bd
       0.08086191 -0.19288857 0.010979725 -0.08794269
000020 c5 31 3f 3e bb 08 bc 3d e7 5d db bc 78 5a d6 bd
       0.1867133 0.09181353 -0.026778175 -0.10466474
000030 91 be c9 3d 36 e0 ca 3d 27 30 6c be 3f 20 11 3e
       0.09850801 0.09906046 -0.23065244 0.14172457
000040 ed 2e c8 3d b8 2b 3a 3e d6 bf e6 bd ee 4e e1 bd
       0.097745754 0.1818074 -0.112670586 -0.11001383
000050 80 d7 98 bb 1c 1c 3b 3e ba 22 e3 3d a0 98 4b 3c
       -0.0046643615 0.18272442 0.11090608 0.012426525
000060 08 ca e2 bb c8 06 97 be f4 d6 0e bd 3c 87 60 bd
       -0.0069210567 -0.2949736 -0.034872964 -0.05481647
000070 7a 14 ca 3d a6 3a d3 3d 37 d3 19 bd 6f c7 97 bd
       0.09867187 0.10313921 -0.037554946 -0.07411086

dblock_3.denselayer1.conv1.weight f4 [48, 32, 3, 3]
000000 e0 dd 0b 3c 1a ee 55 3c db bb 97 3c 75 d3 9e bc
       0.008536786 0.013057256 0.018522194 -0.01938794
000010 c6 96 98 bc a4 cc c8 b7 2b 61 f4 bb 6d 1e 91 bb
       -0.018626582 -2.3937151e-05 -0.0074578724 -0.004428676
000020 e7 fe 39 3c 18 9f 1a 3d ca c9 b6 3d ec a4 2d 3c
       0.011352277 0.03774938 0.08925207 0.0105984025
000030 64 bd d6 3c cc 3f 5e bd df ee 96 3d cb 24 69 3d
       0.026213355 -0.05426006 0.0736978 0.056919854
000040 fa 40 96 bd c7 6c 9a 3d 29 4c 9c 3d da 44 81 bc
       -0.07336612 0.07540279 0.07631714 -0.015779901
000050 59 e8 df 3d 84 85 fd 3b d2 4c 2a 3d 5c ea cb 3d
       0.10932989 0.0077368636 0.041577168 0.0995681
000060 5b 47 90 3d 46 e2 83 bc 03 b2 0b bb e7 5c 94 3d
       0.0704486 -0.016099107 -0.002131582 0.07244282
000070 ce 30 0b bd 99 43 b8 bd 9f 5f e2 3b 5c 90 21 bd
       -0.03398209 -0.08997268 0.0069083716 -0.039444312
000080 f0 de 0c be 52 76 8a bd 6d d3 45 be 0c 92 19 be
       -0.13756919 -0.06760849 -0.19318934 -0.14997119
000090 50 9c 1e 3d 29 44 56 3c 83 8a c2 bc c0 c7 88 3d
       0.03872329 0.013077774 -0.023747688 0.06678724
0000a0 d5 2b 57 bd 2d f7 a0 3d 77 ed ae 3b 7c 57 90 bb
       -0.052532036 0.07859645 0.0053383666 -0.00440496
0000b0 4e 9a 42 bd 37 ab 8d bb 6e 5f 9d bd 36 0e fc bd
       -0.047510438 -0.004323389 -0.076842174 -0.12307398
0000c0 ce fa 44 bd bc 4b f2 bd 1a 0b 9b bd 08 ca 33 bc
       -0.04809075 -0.118308514 -0.07570477 -0.010973461
0000d0 8a bd 93 bc 21 e0 cb 3b b5 fd 00 bd 15 ae 84 3b
       -0.018034715 0.0062217866 -0.031491954 0.0040490725
0000e0 9d b3 16 3d 58 5b 77 3a 6d 82 95 bd 5c 26 b3 bc
       0.036792386 0.00094359135 -0.07300267 -0.021868877
0000f0 c6 83 ab bd a5 29 a9 3c 66 10 12 3c 31 18 cb 3d
       -0.08374743 0.02064974 0.0089150425 0.099167235
000100 1d 02 b6 ba 67 8d 05 3d 20 d8 2f bc 59 e3 9c bd
       -0.0013886128 0.032605555 -0.010732681 -0.076605506
000110 85 4b 2c be cf bb 81 3b f2 55 08 be 14 89 2c be
       -0.16825683 0.003959156 -0.13314036 -0.16849166
000120 fc 23 e4 bc 88 8e 62 bd 72 21 e3 bd ac ed 92 bb
       -0.02784919 -0.05531171 -0.110903636 -0.004483899
000130 cb 92 30 bc 17 7d 8e bc e6 7c c2 bb 8d 19 bf 3d
       -0.010777186 -0.017393632 -0.005935299 0.09331045
000140 53 73 d1 3c 31 f7 da 3d 8c 4d 96 bc 57 d1 40 3c
       0.025567686 0.10691679 -0.018347524 0.0117686605
000150 83 cf 24 3d 36 f8 18 bd 99 ac 74 3b b9 c7 50 3d
       0.04023696 -0.037346087 0.0037334322 0.05097172
000160 47 08 ee 3c 0a 84 46 bd 99 7c 92 bd b5 d7 dc bd
       0.029056681 -0.048465766 -0.07152671 -0.1078333
000170 c4 6a 99 3c 8d b8 84 be fc d9 92 be f8 77 63 be
       0.018727668 -0.2592205 -0.28681934 -0.22213733
000180 ee 35 af 3c 4a 9c f5 bd 6e 3f a1 bd f0 61 c1 bd
       0.02138802 -0.119927004 -0.078734264 -0.09442508
000190 0f d9 50 be 30 32 4c 3d 39 66 46 be ad 4d 13 be
       -0.20395301 0.04985255 -0.19374932 -0.143851
0001a0 7f cb 7e bd 6c de 81 bd 60 24 4a bd 86 bc ea 3c
       -0.062205788 -0.06341252 -0.049351096 0.028654348
0001b0 f3 43 8f 3d 06 46 83 bd f2 79 5c bd 12 16 28 bd
       0.06995382 -0.0640984 -0.053827234 -0.041036673
0001c0 69 99 e3 3d 68 4c 28 3b 74 ea f2 3d 33 46 05 bd
       0.11113245 0.0025680307 0.11861125 -0.03253765
0001d0 9c 2f 4a b9 0b ad 81 bb ce da 0d bd 1b 4f ac 3d
       -0.00019281957 -0.003957396 -0.034632497 0.08413526
0001e0 1c 67 42 3d 5e 28 3c 3e ce 55 dc 3c 05 9e 41 3e
       0.047461614 0.18374774 0.026896384 0.18907936
0001f0 5f ae b5 3d 1a 9b df 3d 0e 7c 8e bd 77 d0 80 3d
       0.08871149 0.10918255 -0.06957255 0.062897615
000200 80 a0 cb bd 48 a9 d5 bd 0a c8 07 be 16 b1 d6 3c
       -0.09942722 -0.104326785 -0.13259903 0.026207488
000210 11 7b 1b bd 8d f5 ad bd 6c 8d 06 be 43 16 8e 3d
       -0.037959162 -0.08494101 -0.13139886 0.0693784
000220 55 a8 d1 3c 8b f5 6b 3d ea 7d 34 bd 81 9b 43 3d
       0.025592962 0.057607215 -0.044065394 0.047755722
000230 4c 30 16 3d 3c 5e 26 bc a6 85 ce bc eb 7c a6 3d
       0.036667153 -0.010154303 -0.025210213 0.08129295
000240 40 ca ca 3b 11 ae 9d bc 27 f0 21 3d 6b 8d b6 bb
       0.006188661 -0.01924804 0.039535668 -0.0055710576
000250 6a 71 21 bd 3e 41 f8 bc 58 05 b7 bd ab 5c 32 3d
       -0.0394148 -0.030304547 -0.08936566 0.043545406
000260 0a 41 93 3c b2 1c 59 bd f9 9d 26 3d 6f 05 a3 3d
       0.017975349 -0.05300588 0.040678 0.07960021
000270 a2 68 d4 3c 50 b5 03 3d f5 fb c6 bd 7d 98 04 3e
       0.025928799 0.032155335 -0.09716026 0.12948795
000280 a3 f8 a1 3d a6 60 4e 3d 2b 66 b7 bd 52 5d 50 bd
       0.07908752 0.05038514 -0.08955034 -0.050870247
000290 bf b6 1b bd 69 c3 d5 bc 79 b3 9a 3c e2 21 ee 3d
       -0.038016077 -0.026094155 0.018884407 0.116275564
0002a0 1e 65 a4 bc ff ea 93 3d da 5a ee bc 73 b5 b7 3b
       -0.020067748 0.07222556 -0.029096056 0.005606347
0002b0 7b 50 cf bd 13 05 1e be 33 89 15 be af 51 b8 bd
       -0.10122772 -0.15431623 -0.14603119 -0.08999955
0002c0 5c 8a 1f be 0e c6 24 be 0a c7 04 be 5d 20 1d be
       -0.15580124 -0.16091177 -0.12966552 -0.15344377
0002d0 2e 9e 45 3d 9c 16 38 3d 95 da e5 3c cf d9 f1 3d
       0.048246555 0.044943437 0.02805833 0.11809122
0002e0 a4 b9 a9 3d 35 c3 00 3b 1f 2a 2a 3d b7 a2 10 3d
       0.08287361 0.0019647602 0.041544076 0.035311427
0002f0 1a df 2d bd 34 f4 38 3d 65 37 fd 3c 2d d7 7b 3c
       -0.042449094 0.045154765 0.030910203 0.015371126
000300 2a ed 79 3d ba c0 22 3d 95 8a 98 3d 6a bd 19 3e
       0.061017193 0.03973458 0.074483074 0.15013662
000310 13 c6 00 3d e3 77 5f 3c b9 b9 c6 3d 93 47 d0 3d
       0.0314389 0.013639423 0.097033925 0.10169902
000320 c6 58 9b 3d 89 18 03 be d9 0f 34 bd 2f e1 5d bd
       0.075852916 -0.12802328 -0.043960426 -0.05416983
000330 d7 92 2d be 6f 50 07 be d6 f1 ea bb 51 14 ff 3c
       -0.16950546 -0.13214277 -0.0071699424 0.031137617
000340 1b 14 ab 3b 03 cf dd 3d b7 3f a0 bc 60 72 77 bd
       0.0052209026 0.108305 -0.019561632 -0.06041181
000350 fa a5 09 3d ca 6b 50 bc 38 53 be bd 3f 3f c7 3d
       0.033605553 -0.012721011 -0.092932165 0.0972886
000360 a3 c4 db 3b 66 ac 83 3d d9 d6 7b 3c b0 41 37 be
       0.0067067905 0.06429367 0.015371048 -0.17896152
000370 a1 c5 20 be 42 f9 d7 3c bc 6e 0c bc 19 3b ac 3d
       -0.1570039 0.026363973 -0.008571323 0.084097095
000380 fc 31 3e 3d fd ec ce 3d c2 4c 80 bd a7 4a b8 bd
       0.046434388 0.10103796 -0.062646404 -0.08998614
000390 6b a3 9e 3d 13 6a 14 3d 5d 34 88 bd bd 0e a8 bc
       0.07746013 0.036233973 -0.066506125 -0.02051484
0003a0 29 69 d1 bc e9 0d 37 bc eb bf 44 3c 67 e6 9f bd
       -0.02556284 -0.01117275 0.012008647 -0.07807618
0003b0 57 e7 3d 38 83 1a a5 bd 09 89 f5 bd d0 44 09 be
       4.5276563e-05 -0.08061697 -0.11989028 -0.13405156
0003c0 0f d2 0b 3e a9 27 8f 3c 32 d3 c7 bd 95 91 7b 3d
       0.1365435 0.017474966 -0.09757079 0.061418135
0003d0 b5 d8 0e 3d 44 0c 50 bd 81 f3 80 bb c0 88 f0 3c
       0.034874637 -0.050792947 -0.003935278 0.029362082
0003e0 e9 2d 70 3d 82 46 33 3d d6 57 64 bd 80 a3 b0 3c
       0.058637533 0.043768413 -0.05574783 0.021562338
0003f0 ec 12 14 bc 38 d3 9a bc 18 ab c1 3c 75 56 77 bd
       -0.009037714 -0.018899545 0.023641154 -0.060385186

dblock_3.denselayer1.conv1.bias f4 [48]
000000 ba 9e 82 3d 57 6a 9c bc 83 fb c3 3d 0f 60 a3 3d
       0.06377931 -0.019093676 0.095694564 0.07977306
000010 66 ba 89 3d fe f3 f6 bc e7 53 68 3d 25 6f e7 3d
       0.06725006 -0.030145641 0.05672064 0.11300496
000020 4d 1b df 3c f4 48 3a bd 19 90 12 3e be 9d 8b 3d
       0.027234698 -0.04547973 0.14312781 0.06817196
000030 63 ac c4 3d e9 e6 9f 3d 52 d4 7e bd f2 07 3b bd
       0.09603193 0.078077145 -0.062214203 -0.045661874
000040 13 d2 19 3d 6c e7 04 bd 67 1b a9 3d c0 8f 81 3d
       0.037553858 -0.032447264 0.0825718 0.06326246
000050 1d ec 8e bd 24 18 c0 bc af 9b 9a bd c9 d7 41 3c
       -0.06978629 -0.023449011 -0.075492255 0.011831232
000060 4a d0 94 3d db da d9 bd 32 71 cc 3d 90 da d4 3c
       0.072662905 -0.106374465 0.09982528 0.025983125
000070 d9 57 5b 3d 3f 49 82 3c ff 11 8e bd 08 20 99 3d
       0.053550575 0.015904067 -0.06937026 0.074768126
000080 f0 13 9f bd d2 10 ae 3c b2 92 26 bc 45 94 7b 3d
       -0.07767475 0.021248255 -0.010166811 0.061420698
000090 06 16 4c 3d 9e 02 9d bd df 28 b1 bd 4e 09 10 3e
       0.04982569 -0.07666515 -0.08650374 0.1406605
0000a0 03 31 59 bd ee 2a b6 3d 5d 19 29 bd 46 59 6a 3d
       -0.053025257 0.08894907 -0.041283954 0.057214044
0000b0 d1 1e 95 3d f3 43 7b bd 99 2a 5c 3d b5 ae 50 3d
       0.072812684 -0.0613441 0.05375156 0.050947864

dblock_3.denselayer1.conv2.weight f4 [48, 48, 3, 3]
000000 bb 08 0a bd 9d f2 a5 bd 50 26 5c bd 41 5b 37 bc
       -0.033699732 -0.081029154 -0.053747475 -0.01119119
000010 80 48 99 bd 27 88 ec bc 56 f8 cc bc aa ae bb bb
       -0.074845314 -0.028873516 -0.02502076 -0.0057276087
000020 5a b4 1e 3c bc c3 56 3d ad 98 28 3d 3e eb c9 bd
       0.009686554 0.05243276 0.041161228 -0.09859322
000030 9a b3 b3 3c f5 b3 bb bd 5b 35 fb 3d cb 19 c4 bc
       0.021936227 -0.091651835 0.12266036 -0.02393808
000040 e7 a2 df 3b a1 c2 4d 3d 72 34 15 bc 68 e0 50 3d
       0.0068248394 0.05023444 -0.009106742 0.05099526
000050 e8 b3 34 bd 8d f9 bd bc fb 11 00 be 14 0b 51 bc
       -0.044116884 -0.023190284 -0.12506859 -0.012758989
000060 1a 23 cc 3a fc d3 aa 3d 81 3e ed 3c b8 ba ae 3a
       0.0015574426 0.08341214 0.028960468 0.0013330793
000070 fc a5 36 3d ab a9 a0 bd 6c f9 0a 3e 9e 12 9c 3d
       0.04459189 -0.078448616 0.1357171 0.076207384
000080 31 34 0a 3d 9b 14 3e bd f2 5c 2a bd ed 43 35 bd
       0.03374118 -0.04640637 -0.041592546 -0.044254232
000090 0c ba ce bd 0c 43 4a bb 68 6a 98 bc de 11 96 bc
       -0.100940794 -0.0030862717 -0.018605426 -0.018319067
0000a0 27 02 7d bc 7e 7d 0c bc cb fb c1 bd 00 8c bd 3d
       -0.015442408 -0.008574842 -0.09471854 0.092552185
0000b0 38 d7 3f bd 84 2e 9b bc be 73 8d 3c 9c e9 37 bc
       -0.046836108 -0.018943079 0.017267104 -0.01122513
0000c0 06 78 de 3c db 18 97 3c 7d f5 1f bc 6a 04 b9 bc
       0.027156841 0.01844447 -0.009763119 -0.022585113
0000d0 fd 3b 07 bd d2 02 80 bd 15 6c e6 bb 93 a6 27 3d
       -0.033016194 -0.06250538 -0.0070319274 0.040930342
0000e0 89 15 89 bc c7 1e ca bd 5b ea 42 be 33 57 e8 bd
       -0.016733902 -0.098691516 -0.19034712 -0.11344757
0000f0 08 42 61 bd 4f 2c 4f 3c 4a aa da bb c4 97 ec 3c
       -0.054994613 0.012644841 -0.006673132 0.028880961
000100 5f e4 b4 b9 36 53 05 3d 50 5b ba 3c 33 0e aa 3d
       -0.00034502425 0.03255006 0.02274862 0.083034895
000110 4a 59 96 bb a5 5a 18 3d 7d 51 27 bd 94 89 54 3d
       -0.004588281 0.03719582 -0.040849198 0.051889017
000120 e9 3c ee 3c f4 70 e1 3b 3c a2 f1 3c 51 50 0d 3d
       0.029081779 0.00687992 0.029496305 0.034500424
000130 2c 72 f1 3b e6 16 8a 3d af 6c b4 3d c9 42 0c bd
       0.0073683467 0.06742649 0.08809792 -0.03424338
000140 ec d6 6f 3d 34 32 93 bd b0 f7 b7 bc b6 fb 21 bd
       0.058554575 -0.0718731 -0.022456974 -0.03954669
000150 07 fb d9 bc ca d3 a7 3d 95 72 b2 bd cf 54 c6 bb
       -0.026608957 0.081946924 -0.08713261 -0.0060525904
000160 00 a8 2f bd ac df b6 ba 6d b7 a4 3c 48 c5 86 bc
       -0.042884827 -0.0013952157 0.020106995 -0.016451493
000170 41 dc ad bd 5a 0e 1b bd 0a 0c 23 be 2a 4b 60 3d
       -0.08489276 -0.037855484 -0.15922561 0.054759182
000180 90 7f 91 bd c5 b5 e3 3d 25 44 0b 3d 25 2f 98 bd
       -0.07104409 0.11118654 0.034000535 -0.07430867
000190 64 2d 4f bd 53 5b 85 3c 51 fc 86 bd 8c 8d 43 3c
       -0.050580397 0.016278898 -0.06591094 0.011935603
0001a0 15 64 8c 3c db 32 ab bb 38 7a 24 bd 6b eb 25 3d
       0.017137567 -0.0052245683 -0.04015562 0.040507715
0001b0 4d bb de bb 8c fc 6e bd fe 8a 82 3d d0 57 69 bc
       -0.0067972303 -0.058346316 0.06374167 -0.014242128
0001c0 98 91 e6 3c ce 82 7d bd 6d 63 fe bc 12 78 7d bd
       0.028145596 -0.061892323 -0.03105327 -0.061882086
0001d0 87 48 02 bd 4b b7 4c bd e1 fd be bc 46 2c f9 bc
       -0.03180745 -0.04997949 -0.023314418 -0.030416619
0001e0 44 25 0c 3c da 83 25 bc 3a e7 0f bc d6 67 c0 ba
       0.008553807 -0.010102237 -0.008783156 -0.0014679383
0001f0 62 6f 61 3d ec e3 89 3d 39 3b 1c 3d 18 10 7d bd
       0.055037864 0.06732926 0.038142417 -0.061782926
000200 59 00 40 3c a8 7b 5f 3c 73 fe 38 bd da 97 c7 3b
       0.011718833 0.013640322 -0.045164537 0.0060911
000210 5f 78 80 3d b4 27 0b 3d ac b3 b3 bc f0 12 fa bb
       0.06272959 0.03397341 -0.02193626 -0.007631652
000220 45 fe a7 bc 41 2b 0d bc cc 50 4d bc 1e 9c 80 bc
       -0.020506987 -0.00861627 -0.0125314705 -0.015699442
000230 5d 45 73 bc c3 8f 52 bc 81 bb 92 bc 3b de 97 bc
       -0.01484808 -0.012851658 -0.017911674 -0.018538585
000240 87 10 47 bd a4 ce 10 3d a3 a9 5f 3d a1 bc aa bd
       -0.048599746 0.035353318 0.054605138 -0.08336759
000250 05 af a8 bb d8 6e c2 bd 58 17 56 3c 9b 35 84 3d
       -0.005147817 -0.09493798 0.013067089 0.06455537
000260 62 f0 9b 3c 41 8e 91 bd 46 07 a0 3c 3e 14 9d bc
       0.019035522 -0.07107211 0.019534718 -0.019174691
000270 31 95 8f 3b 87 89 f4 3b 4f 66 a8 bd be b9 71 bd
       0.0043817987 0.0074626836 -0.08222639 -0.05901503
000280 e4 8f c2 bd 5c 2f 1f 3a 52 0f 83 bc 67 ad 0d 3d
       -0.09500101 0.0006072426 -0.015998516 0.034589197
000290 e9 ec 14 3d 76 1e 5f 3d b4 93 fb 3d 91 b4 59 3d
       0.036358748 0.05447241 0.122840315 0.053150717
0002a0 29 e0 b9 3d 53 a0 11 3d 7e d4 94 3b e9 ea c2 bc
       0.09075958 0.035553288 0.0045419326 -0.023793655
0002b0 5d 2a 07 bc 65 65 22 3d 6a 7d 87 bc ce d6 e2 3c
       -0.008249846 0.03964748 -0.016539294 0.027690317
0002c0 2b 97 b5 3c e8 a4 47 bc 89 d0 04 bc d6 57 dd 3c
       0.022166809 -0.012185313 -0.008106359 0.027019423
0002d0 7c 28 b8 ba c4 cc c9 39 6c 96 55 bd 14 36 80 3c
       -0.0014050151 0.0003849027 -0.052145407 0.015650786
0002e0 c5 7d d5 3b 99 48 f8 bc 4e 1c d3 3b 8c 18 ca 3c
       0.006515237 -0.030308055 0.006442583 0.024669908
0002f0 aa 1a 86 bd 36 b1 a3 bb ec 85 f2 bc d4 a4 ee 3c
       -0.065480545 -0.0049954904 -0.029604875 0.02913133
000300 e0 69 ef 3a 43 62 34 bc 90 d8 f1 3c b5 4c c0 bd
       0.0018265806 -0.011009756 0.02952221 -0.09389631
000310 b2 81 3c be 47 84 26 be 36 05 f4 3c 26 95 47 bc
       -0.1840885 -0.16261397 0.029787641 -0.012181556
000320 d5 c6 0d 3d 83 0b 01 bd 2b 36 0a 3a 65 93 23 bd
       0.03461345 -0.03150512 0.0005272354 -0.03993549
000330 03 d8 36 bd d3 5e 27 3e 3c b1 ac bd e8 bb c2 3a
       -0.0446396 0.16344766 -0.08432242 0.0014857026
000340 e6 11 59 bc cd f3 25 bc 8e 9b 62 bd 8a 51 fd bd
       -0.013248896 -0.010128927 -0.05532413 -0.12369068
000350 b4 25 b9 bd af de 8f 3c 22 ae 0d 3e ee 62 bb bd
       -0.090403944 0.017562238 0.13835958 -0.09149729
000360 57 2f 88 3d 3c 5d 83 3d 57 4a 0b 3d 03 dd 1c bd
       0.06649654 0.064142674 0.034006443 -0.03829671
000370 c2 84 bb bb 0f b9 ba 3c b1 ea 97 3c b8 46 9f 3d
       -0.005722613 0.022793321 0.018544527 0.077771604
000380 4c a7 07 3c 3d bb 4f bb 74 eb d5 bd 71 65 7e bb
       0.008279633 -0.0031697296 -0.104453 -0.0038817788
000390 98 a2 73 bd 4a 9f 10 3d ae 21 c5 bc d6 31 27 3a
       -0.059481233 0.03530816 -0.024063911 0.00063779706
0003a0 0f 51 f6 3c fb cd 8b 3c 07 24 d0 bb 4d b8 d7 bd
       0.030067949 0.017065993 -0.006351951 -0.105331995
0003b0 69 be 0b 3d ad 36 43 bc 09 ba e5 3c 72 32 5a 3b
       0.034117136 -0.011914891 0.02804281 0.0033294228
0003c0 c9 92 57 3c 8f 07 e3 3c 51 b2 3c 3d 04 20 5d bd
       0.013157555 0.027713565 0.046068493 -0.05398561
0003d0 e7 af 38 bc f6 bc 0d 3c 07 3c 42 bd a6 f0 0c bd
       -0.011272407 0.008651009 -0.047420528 -0.034409188
0003e0 d6 e6 b6 3b b9 33 99 3b b5 4b 65 bc d2 24 0f 3c
       0.005581717 0.0046753553 -0.013995101 0.008736806
0003f0 a6 9d c0 bc 57 e8 01 bd ef 79 f1 bc 47 44 00 3e
       -0.023512673 -0.031715717 -0.029477088 0.12526046

dblock_3.denselayer1.conv2.bias f4 [48]
000000 8e 2d 75 3d 62 a2 7b 3d b7 08 c4 bc a6 e8 74 bd
       0.059857897 0.061434157 -0.023929937 -0.059792183
000010 97 ec 6c 3c ff 42 40 3b 8d 3c 7e 39 0f 51 dc bb
       0.014460704 0.0029336808 0.00024245885 -0.00672353
000020 c1 be 7d 3c c6 a0 91 bd f6 33 b3 bd a9 9c 81 bd
       0.015487374 -0.07110743 -0.08750145 -0.06328709
000030 f4 27 56 bd f3 56 42 3d cd a8 a4 bd c6 0a 97 3d
       -0.052284196 0.047446202 -0.08040009 0.07375102
000040 b8 ab 9e 3d 5b 0e cb 3d 53 00 96 3d d7 d0 75 3d
       0.077475965 0.099148475 0.073242806 0.06001362
000050 94 b0 a0 3d 97 cb 07 3c 4b b4 63 3b 1a 7f 95 bd
       0.078461796 0.008288286 0.0034744914 -0.07299633
000060 6d 4d c1 3d 51 cf 90 3c ad 8e a2 bd 44 ec 05 3d
       0.09438596 0.017676981 -0.079373695 0.032696024
000070 49 93 67 bd 31 a5 a9 3c 3e 3b d8 bc 3f 24 8f 3c
       -0.056536946 0.020708652 -0.026395436 0.017473338
000080 7b 32 8d bc 1e 42 8c 3c 40 71 0a 3c 6d 61 d1 3c
       -0.017235985 0.01712137 0.0084498525 0.025559152
000090 ba d3 06 3c 80 98 3d bd 0b 9a 51 3c 42 7b 3a bc
       0.0082291905 -0.046288013 0.012793074 -0.011381926
0000a0 93 e5 87 bc 28 b1 e7 bc 4c b8 89 bc d3 0c 53 bd
       -0.016588962 -0.028282717 -0.016811512 -0.051525902
0000b0 d9 1a 1a bb 5b 79 50 3d 86 11 15 bd f5 ae 26 3b
       -0.0023514538 0.050896984 -0.036393665 0.0025433872
